…
  LR_SCHEDULER:
    
  MOMENTUM: 0.9
  NESTEROV: True
  OPTIMIZER: sgd
  OPTIMIZER_ARGS:
    
  SAVE_ALL_MODELS: False
  SCALE_LR: True
  SHUFFLE: True
  WD: 0.0001
  WITHOUT_WD_LIST: []
VERBOSE: True
WORKERS: 4
2025-07-14 18:40:21,125:[P:3761364]:Rank[0/1] => using 1 GPUs
2025-07-14 18:40:21,125:[P:3761364]:Rank[0/1] => saving config into: /data/jsliao/paper_model/test/MPDATASET/DNN_MS/config.yaml
2025-07-14 18:40:21,260:[P:3761364]:Rank[0/1] => load model file: /data/jsliao/paper_model/test/MPDATASET/DNN_MS/model_best.pth
2025-07-14 18:40:21,270:[P:3761364]:Rank[0/1] => get_model(
  (fcsoap1): Conv2d(147, 256, kernel_size=(1, 1), stride=(1, 1))
  (bnsoap1): BatchNorm2d(256, eps=1e-05, momentum=0.1, affine=True, track_running_stats=True)
  (fcsoap2): Conv2d(256, 256, kernel_size=(1, 1), stride=(1, 1))
  (bnsoap2): BatchNorm2d(256, eps=1e-05, momentum=0.1, affine=True, track_running_stats=True)
  (fcsoap3): Conv2d(256, 256, kernel_size=(1, 1), stride=(1, 1))
  (bnsoap3): BatchNorm2d(256, eps=1e-05, momentum=0.1, affine=True, track_running_stats=True)
  (fcsoap4): Conv2d(256, 256, kernel_size=(1, 1), stride=(1, 1))
  (bnsoap4): BatchNorm2d(256, eps=1e-05, momentum=0.1, affine=True, track_running_stats=True)
  (fcsoap5): Conv2d(256, 128, kernel_size=(1, 1), stride=(1, 1))
  (bnsoap5): BatchNorm2d(128, eps=1e-05, momentum=0.1, affine=True, track_running_stats=True)
  (fcmbtr1): Linear(in_features=157, out_features=256, bias=True)
  (bnmbtr1): BatchNorm1d(256, eps=1e-05, momentum=0.1, affine=True, track_running_stats=True)
  (fcmbtr2): Linear(in_features=256, out_features=256, bias=True)
  (bnmbtr2): BatchNorm1d(256, eps=1e-05, momentum=0.1, affine=True, track_running_stats=True)
  (fcmbtr3): Linear(in_features=256, out_features=256, bias=True)
  (bnmbtr3): BatchNorm1d(256, eps=1e-05, momentum=0.1, affine=True, track_running_stats=True)
  (fcmbtr4): Linear(in_features=256, out_features=256, bias=True)
  (bnmbtr4): BatchNorm1d(256, eps=1e-05, momentum=0.1, affine=True, track_running_stats=True)
  (fcmbtr5): Linear(in_features=256, out_features=128, bias=True)
  (bnmbtr5): BatchNorm1d(128, eps=1e-05, momentum=0.1, affine=True, track_running_stats=True)
  (fcl_res0): Linear(in_features=256, out_features=256, bias=True)
  (bnl_res0): BatchNorm1d(256, eps=1e-05, momentum=0.1, affine=True, track_running_stats=True)
  (fcl_res1): Linear(in_features=256, out_features=256, bias=True)
  (bnl_res1): BatchNorm1d(256, eps=1e-05, momentum=0.1, affine=True, track_running_stats=True)
  (fcl_res2): Linear(in_features=256, out_features=256, bias=True)
  (bnl_res2): BatchNorm1d(256, eps=1e-05, momentum=0.1, affine=True, track_running_stats=True)
  (fc_lt1): Linear(in_features=256, out_features=256, bias=True)
  (bn_lt1): BatchNorm1d(256, eps=1e-05, momentum=0.1, affine=True, track_running_stats=True)
  (fc_lt4): Linear(in_features=256, out_features=1, bias=True)
)
2025-07-14 18:40:21,270:[P:3761364]:Rank[0/1] Trainable Model Total Parameter: 	0.8M
2025-07-14 18:40:21,585:[P:3761364]:Rank[0/1] => start testing
2025-07-14 18:40:21,585:[P:3761364]:Rank[0/1] => switch to eval mode
2025-07-14 18:40:27,437:[P:3761364]:Rank[0/1] => synchronize...
2025-07-14 18:40:29,997:[P:3761364]:Rank[0/1] => TEST:	Loss_temp 0.0011	
2025-07-14 18:40:29,997:[P:3761364]:Rank[0/1] => switch to train mode
…
