…
    
  MOMENTUM: 0.9
  NESTEROV: True
  OPTIMIZER: sgd
  OPTIMIZER_ARGS:
    
  SAVE_ALL_MODELS: False
  SCALE_LR: True
  SHUFFLE: True
  WD: 0.0001
  WITHOUT_WD_LIST: []
VERBOSE: True
WORKERS: 4
2025-07-14 18:50:58,910:[P:3763953]:Rank[0/1] => using 1 GPUs
2025-07-14 18:50:58,910:[P:3763953]:Rank[0/1] => saving config into: ../test/MPDATASET/DNN_O/config.yaml
2025-07-14 18:50:59,044:[P:3763953]:Rank[0/1] => load model file: ../test/MPDATASET/DNN_O/model_best.pth
2025-07-14 18:50:59,052:[P:3763953]:Rank[0/1] => get_model(
  (sa1): PointNetSetAbstraction_relu(
    (mlp_convs): ModuleList(
      (0): Conv2d(3, 8, kernel_size=(1, 1), stride=(1, 1))
      (1): Conv2d(8, 16, kernel_size=(1, 1), stride=(1, 1))
      (2): Conv2d(16, 32, kernel_size=(1, 1), stride=(1, 1))
    )
    (mlp_bns): ModuleList(
      (0): BatchNorm2d(8, eps=1e-05, momentum=0.1, affine=True, track_running_stats=True)
      (1): BatchNorm2d(16, eps=1e-05, momentum=0.1, affine=True, track_running_stats=True)
      (2): BatchNorm2d(32, eps=1e-05, momentum=0.1, affine=True, track_running_stats=True)
    )
  )
  (sa2_1): PointNetSetAbstraction_conv3_relu(
    (mlp_convs): ModuleList(
      (0): Conv2d(35, 64, kernel_size=(3, 1), stride=(3, 1))
      (1): Conv2d(64, 96, kernel_size=(3, 1), stride=(3, 1))
      (2): Conv2d(96, 128, kernel_size=(3, 1), stride=(3, 1))
    )
    (mlp_bns): ModuleList(
      (0): BatchNorm2d(64, eps=1e-05, momentum=0.1, affine=True, track_running_stats=True)
      (1): BatchNorm2d(96, eps=1e-05, momentum=0.1, affine=True, track_running_stats=True)
      (2): BatchNorm2d(128, eps=1e-05, momentum=0.1, affine=True, track_running_stats=True)
    )
  )
  (sa4): PointNetSetAbstraction_relu(
    (mlp_convs): ModuleList(
      (0): Conv2d(131, 128, kernel_size=(1, 1), stride=(1, 1))
      (1-2): 2 x Conv2d(128, 128, kernel_size=(1, 1), stride=(1, 1))
    )
    (mlp_bns): ModuleList(
      (0-2): 3 x BatchNorm2d(128, eps=1e-05, momentum=0.1, affine=True, track_running_stats=True)
    )
  )
  (fcl_res0): Linear(in_features=256, out_features=256, bias=True)
  (bnl_res0): BatchNorm1d(256, eps=1e-05, momentum=0.1, affine=True, track_running_stats=True)
  (fcl_res1): Linear(in_features=256, out_features=256, bias=True)
  (bnl_res1): BatchNorm1d(256, eps=1e-05, momentum=0.1, affine=True, track_running_stats=True)
  (fcl_res2): Linear(in_features=256, out_features=256, bias=True)
  (bnl_res2): BatchNorm1d(256, eps=1e-05, momentum=0.1, affine=True, track_running_stats=True)
  (fc_lt1): Linear(in_features=256, out_features=256, bias=True)
  (bn_lt1): BatchNorm1d(256, eps=1e-05, momentum=0.1, affine=True, track_running_stats=True)
  (fc_lt4): Linear(in_features=256, out_features=1, bias=True)
)
2025-07-14 18:50:59,052:[P:3763953]:Rank[0/1] Trainable Model Total Parameter: 	0.4M
2025-07-14 18:50:59,372:[P:3763953]:Rank[0/1] => start testing
2025-07-14 18:50:59,372:[P:3763953]:Rank[0/1] => switch to eval mode
2025-07-14 18:51:05,796:[P:3763953]:Rank[0/1] => synchronize...
2025-07-14 18:51:08,383:[P:3763953]:Rank[0/1] => TEST:	Loss_temp 0.0014	
2025-07-14 18:51:08,383:[P:3763953]:Rank[0/1] => switch to train mode
…
